…
34/85 [===========>..................] - ETA: 1:58 - loss: 0.9330 - accuracy: 0.5634Training data dimensions = (2718, 85, 120, 4)
Training data dimensions = (2718, 85, 120, 4)
Training data dimensions = (2718, 85, 120, 4)
Model: "model"
_________________________________________________________________
Layer (type)                 Output Shape              Param #   
=================================================================
input_1 (InputLayer)         [(None, 85, 120, 4, 1)]   0         
_________________________________________________________________
conv3d (Conv3D)              (None, 85, 120, 4, 128)   12928     
_________________________________________________________________
conv3d_1 (Conv3D)            (None, 85, 120, 4, 64)    294976    
_________________________________________________________________
conv3d_2 (Conv3D)            (None, 85, 120, 4, 64)    147520    
_________________________________________________________________
time_distributed (TimeDistri (None, 85, 30720)         0         
_________________________________________________________________
dropout (Dropout)            (None, 85, 30720)         0         
_________________________________________________________________
dense (Dense)                (None, 85, 64)            1966144   
_________________________________________________________________
dense_1 (Dense)              (None, 85, 64)            4160      
_________________________________________________________________
dropout_1 (Dropout)          (None, 85, 64)            0         
_________________________________________________________________
dense_2 (Dense)              (None, 85, 48)            3120      
_________________________________________________________________
dropout_2 (Dropout)          (None, 85, 48)            0         
_________________________________________________________________
dense_3 (Dense)              (None, 85, 3)             147       
=================================================================
Total params: 2,428,995
Trainable params: 2,428,995
Non-trainable params: 0
_________________________________________________________________
Training data dimensions = (2718, 85, 120, 4)
Training data dimensions = (2718, 85, 120, 4)
Training data dimensions = (2718, 85, 120, 4)
